torch/results/model.pth (torch_old, 88684 bytes, 8 tensors)

conv1.weight f4 [10, 1, 5, 5]
000000 3a 52 89 3e 53 31 9e 3e 1d e1 cb 3e ac 32 4d 3e
       0.26820546 0.30897006 0.39820185 0.20038861
000010 57 c4 cc 3e 21 3e a2 3d 6f e5 59 3e 06 1b 3d 3e
       0.39993545 0.079220064 0.21278928 0.1846734
000020 0e a1 8b 3e 94 cf 17 3d a0 e7 9c bc fe e6 04 be
       0.27271312 0.037063196 -0.019153416 -0.12978742
000030 f7 16 65 be d9 f0 f3 bd ba ab a8 3d 80 8c bf bd
       -0.22372042 -0.119111724 0.08235879 -0.0935297
000040 50 a7 9c be 22 e7 a0 3c 10 9c af be 7a 20 fa 3b
       -0.305964 0.019641463 -0.34298754 0.007633266
000050 6b 89 65 be 1b e9 87 be c0 86 98 be f4 65 91 bd
       -0.22415702 -0.26545033 -0.29790306 -0.07099524
000060 22 5b aa bd 26 5b 76 3e 43 71 06 be d3 8b c6 bd
       -0.083181635 0.24058208 -0.13129143 -0.09694638
000070 1d 02 b8 3d 0f 12 21 3e b6 6a 64 3e d3 2c 00 be
       0.08984778 0.15729545 0.22306332 -0.12517099
000080 91 87 7a be 9c 10 4d be 65 a1 07 3e 9f d0 a6 3e
       -0.24465777 -0.20025867 0.13245161 0.3258104
000090 4b cf 59 bd 43 43 43 be db 82 cb bc 4f e0 cf bd
       -0.053176206 -0.19068627 -0.02484267 -0.10150205
0000a0 c1 24 ac 3e 75 d3 20 be ae af 6a be 08 d2 11 be
       0.3362179 -0.15705664 -0.22918579 -0.14240277
0000b0 7d f2 1c 3d 36 72 85 3e a6 62 7f 3e 1c f0 80 be
       0.038317192 0.260637 0.24939975 -0.2518319
0000c0 71 5c a6 bb 8c 6c 16 be 03 c1 9f 3d 5c 72 4e 3e
       -0.005076938 -0.14689845 0.07800486 0.20160812
0000d0 ef ed d1 3c ba a1 79 be 51 d8 87 be 2c 88 20 3e
       0.02562615 -0.243781 -0.26532224 0.15676945
0000e0 7b c8 90 3e 81 cd 69 be 20 55 d1 bd f6 0d a2 be
       0.28277954 -0.228323 -0.102213144 -0.31651276
0000f0 b1 9e 07 3e f5 11 c3 3e 9d 0a 97 3d 48 d9 b8 be
       0.1324413 0.38099638 0.07375071 -0.36103272
000100 07 96 93 be aa 26 26 3e 26 14 8c 3e 8f 2d ad 3e
       -0.288254 0.16225687 0.27359122 0.3382382
000110 f8 3a cb 3c 8c ee 4f 3d 94 7a e7 3d ce ee 6a 3e
       0.024808392 0.050764605 0.11302677 0.2294266
000120 cd 05 bb 3e 76 87 8f 3e 8b 76 90 3e 13 aa aa bd
       0.36527863 0.28033036 0.2821544 -0.0833322
000130 3e 9b 88 be 37 71 82 bd 4f 1c a1 bb 7f ae 86 3d
       -0.2668094 -0.0636925 -0.0049167047 0.06576251
000140 45 fa 5b be 1b 1f 9e bd 9f 46 95 be 75 68 b7 bd
       -0.21482189 -0.07720777 -0.29155442 -0.089554705
000150 16 87 88 bc da 70 bb be 4c 44 31 be 54 59 dc 3d
       -0.016665976 -0.36609536 -0.1731121 0.107592255
000160 f4 19 aa 3e a9 fb 5f 3e 15 43 26 be 21 f1 df bd
       0.33222926 0.21873344 -0.16236527 -0.109346636
000170 69 0b 56 3e d4 cb 2a 3e a5 f9 ab bd 41 da f1 bd
       0.2090279 0.16679317 -0.08397225 -0.11809207
000180 aa c8 76 3e 64 68 89 3e e6 50 28 3e 27 48 18 bd
       0.24099985 0.26837456 0.1643711 -0.037178185
000190 4d 26 03 3e bb 22 3f 3e 13 20 aa 3d 61 fa 7e 3e
       0.1280758 0.18665592 0.08306899 0.249002
0001a0 01 0d 1a 3e 1b 31 60 bc ac 5e e3 bd b7 4f 11 be
       0.15044023 -0.013683583 -0.111020416 -0.14190565
0001b0 e7 6c 3d 3e ec 15 8b 3e 36 e4 b2 be 70 94 28 be
       0.18498574 0.27165163 -0.34939736 -0.16462874
0001c0 1e e3 59 3b 37 b6 59 3e 63 40 c4 3e c3 71 30 be
       0.0033246945 0.21260916 0.38330373 -0.17230897
0001d0 5f 86 29 be 9b ce 64 3e 33 9b c3 3e 57 1e 90 3d
       -0.16555165 0.22344439 0.38204345 0.07037037
0001e0 9f 28 1e 3c 43 38 7e 3e 1f 49 4e 3d 9f 0e 66 bb
       0.0096532395 0.2482615 0.050362702 -0.003510393
0001f0 f4 c0 70 3e b3 b9 ad 3d b3 70 4f be d0 6f bf be
       0.23511106 0.08482685 -0.20257835 -0.37389994
000200 ce 00 b7 be 34 e8 b0 be 2e ef a3 be ad a2 e2 be
       -0.357428 -0.34552157 -0.32018417 -0.44264737
000210 c5 ed 86 be c7 2a 3c be 53 f7 ef bd 9a 79 09 3d
       -0.2635328 -0.18375693 -0.11717095 0.033563234
000220 5b 6d c9 bc f9 e8 93 3e d3 9f 63 3e f1 d9 b2 3d
       -0.024588278 0.28888682 0.22228937 0.08732975
000230 d0 cb bc 3e f8 e4 dc 3e 8b a8 3f 3e cc 92 e1 3e
       0.36874247 0.4314344 0.18716638 0.4405731
000240 83 f2 ac 3e a3 85 82 3e 0b 92 4a 3e 69 bb bf 3d
       0.33778772 0.25492582 0.19782273 0.093619175
000250 57 9a c4 bd d7 fb 44 3c 9c 30 14 3e 2b 13 95 bd
       -0.095997505 0.012022934 0.14471668 -0.072790466
000260 1f 94 cf 3d 93 43 93 bd 18 0a e7 bb 4d d8 81 bd
       0.10135674 -0.07190623 -0.007050764 -0.06340084
000270 58 d1 e3 bd 75 f6 74 be 1c 8e 22 be 73 87 9e bd
       -0.111239135 -0.23922141 -0.15874523 -0.07740679
000280 02 7b ad 3c 87 ff 65 3d c5 dd 10 3e 53 b6 06 3d
       0.021176819 0.056151893 0.14147098 0.03288872
000290 73 08 8e be 3e 0c f2 bd 8c c0 9d bd f3 d1 ec bd
       -0.2774082 -0.11818741 -0.07702741 -0.11563482
0002a0 91 71 01 3e b9 2e 75 bc 50 eb b1 3e cd 38 f1 3d
       0.12640978 -0.014964753 0.34749842 0.11778412
0002b0 0a 81 5d 3e 9d 6a 5e bb 21 67 8a 3e ed 62 8e bd
       0.21631256 -0.0033938058 0.27031806 -0.06952462
0002c0 9b ee 63 3e 13 f3 82 3b bb 28 3a be 2b 71 ca bd
       0.2225899 0.003996262 -0.181796 -0.09884866
0002d0 09 0f 3d be b5 94 6f 3e e5 68 ff 3d 6c db 57 3d
       -0.18462767 0.23396571 0.12471179 0.05269949
0002e0 23 fe 90 bd 1e a0 09 be 5a f6 5a 3e 0d 87 e9 3e
       -0.07079723 -0.13439986 0.21383038 0.45610848
0002f0 e1 ec b5 3e 53 33 04 3e 3e 44 a5 be f9 f6 8f bc
       0.35532287 0.12910204 -0.32278627 -0.01757382
000300 e8 e8 66 bc e8 e4 b8 bc 85 f8 84 3e 71 97 c5 be
       -0.014093615 -0.022570089 0.25970855 -0.38592103
000310 14 91 92 be 33 47 83 be 0c 66 86 bd 67 4a 11 be
       -0.2862631 -0.25640258 -0.06562433 -0.14188538
000320 00 02 ba be be c3 bd be 68 85 52 be ff 9c 71 be
       -0.3632965 -0.37063402 -0.20558703 -0.23595046
000330 1e 44 96 3d 1b ae 2f bd 3e 26 95 bd 42 13 9b bd
       0.07337211 -0.04289065 -0.07282685 -0.075720325
000340 a0 9e 8e be 10 9a 22 be 67 3b 93 bc 0c 3c 25 be
       -0.27855396 -0.15879083 -0.017972661 -0.16136187
000350 39 8a 12 be e1 c4 1e be 7d c7 b4 be fd a9 17 3e
       -0.1431054 -0.15504791 -0.35308447 0.14810939
000360 8f 41 a7 3c 25 38 6c bb 1f 48 6a 3c 20 ee c2 bd
       0.020417003 -0.0036044207 0.014299422 -0.09518075
000370 1a 13 0a 3e 4a 40 4e 3e 43 a4 92 3e 0c 86 d3 bc
       0.13483849 0.20141712 0.28640947 -0.025820754
000380 61 63 2a 3e 9f 72 92 3e dc f1 ce 3e 09 8e a7 3e
       0.16639473 0.28603074 0.404189 0.32725552
000390 50 37 28 3e 2b 7a 7c 3d b8 ba c2 3e 92 b6 41 3e
       0.1642735 0.061639946 0.3803308 0.18917301
0003a0 51 12 cf bd f8 dd 8f be 52 6d 4b be 96 bf db 3e
       -0.101109155 -0.28099036 -0.19865921 0.42919606
0003b0 3c 15 a1 bc 6e 0f 80 be 9e 0a b5 bd d5 95 77 bd
       -0.019663446 -0.25011772 -0.08839916 -0.060445625
0003c0 00 23 3c 3e 36 b1 32 be 4a f7 d9 bd 06 e7 40 be
       0.18372726 -0.17450413 -0.1064287 -0.18838128
0003d0 41 67 63 be f8 4b 07 3d 72 1a 0e be bf 5f 44 be
       -0.22207357 0.033031434 -0.13877276 -0.19177149
0003e0 8b 95 62 bd 19 69 99 bd
       -0.055318397 -0.07490749

conv1.bias f4 [10]
000000 d7 fd 93 3d b5 68 fc 3d 19 44 8d 3d 7d 5b 2f bd
       0.072261505 0.12324659 0.06897754 -0.04281186
000010 db 16 38 3e 18 3f ac bd bf 49 79 bd 94 59 9e bd
       0.17977469 -0.08410472 -0.060861345 -0.077319294
000020 c6 98 5e 3e 88 51 71 3d
       0.21737966 0.058915645

conv2.weight f4 [20, 10, 5, 5]
000000 15 09 b0 bd 41 2e 61 bc 3d 63 4d 3c b5 16 27 3d
       -0.08595482 -0.013743938 0.012535867 0.04079314
000010 37 51 ef 3a 64 e0 b2 bc b6 73 0b be 9d 5f 48 bd
       0.0018258457 -0.021835513 -0.13618359 -0.04891931
000020 76 53 24 bd b5 63 cb bc f7 85 43 bd 0a 0b ef bd
       -0.040118657 -0.024827817 -0.04773518 -0.116720274
000030 7e 8f af bd 05 b5 1a 3c a6 df a6 bd b8 a6 15 bd
       -0.08572291 0.0094425725 -0.08148126 -0.03653595
000040 bd 50 32 bd b6 95 8a 3c 9f 8b 2e bd 16 49 4e bd
       -0.04353403 0.01691709 -0.04261362 -0.05036267
000050 d9 13 0f be ce 39 32 bd 60 7e 89 3b ca c8 64 3d
       -0.13972415 -0.043512158 0.0041959733 0.05585555
000060 f6 ab 58 bd 75 1b 8f 3d 73 25 19 bc 72 ad a8 3c
       -0.05289837 0.06987659 -0.0093473075 0.020590518
000070 6d 49 2a bb 06 cc 4e bd 2e 02 f7 bb e6 a2 d4 bc
       -0.0025983707 -0.05048754 -0.0075381016 -0.025956582
000080 40 f9 f5 ba 12 6d 28 3c 36 4e 4a bc 09 5e 8b 3d
       -0.0018766299 0.010279911 -0.0123477485 0.06805045
000090 d5 30 a4 bc 0e d3 90 3d d7 40 08 3d 61 6d d9 bb
       -0.020042816 0.070715055 0.03326496 -0.0066353534
0000a0 ec 5f 98 bc 39 41 91 3d 7e ef 8f 3d 23 b5 4f 3d
       -0.018600427 0.07092518 0.070281014 0.050709855
0000b0 4c b4 03 bd 7b 3f b4 3c 24 13 4d 3c 0b 7d e1 3c
       -0.032154366 0.022002926 0.0125167705 0.027525445
0000c0 07 97 92 bd a0 3d a9 bd 59 28 c9 bd e0 b7 83 be
       -0.071577124 -0.08263707 -0.09822149 -0.25726223
0000d0 05 e8 56 be 02 0a 01 be 51 f4 9a 3c ba f1 1e be
       -0.20986946 -0.12601474 0.018915327 -0.15521899
0000e0 64 da dc bd 05 b1 1b 3d de 57 e4 3c 00 33 d3 3b
       -0.10783842 0.038010616 0.02787393 0.0064452887
0000f0 a0 52 65 be 5a 97 84 bd 32 4e 2e 3e 0d 92 13 3d
       -0.223948 -0.064741805 0.17022017 0.036027957
000100 04 3b a2 bd bf 4f c7 bd 27 72 d7 3d 3b 13 36 3e
       -0.079214126 -0.09732007 0.1051982 0.17780773
000110 e2 9d 99 3d 06 1a 96 bd 62 9a 9b 3d b3 e4 8f 3d
       0.07500817 -0.07329182 0.075978056 0.07026043
000120 fa 9a e5 3d 18 0b 11 3d e1 97 37 bd b7 64 ef bb
       0.112112 0.03541097 -0.044822577 -0.0073057073
000130 20 be 3e 3d 0e c0 b4 3c 30 ae e2 3d 3c c2 84 3d
       0.046568036 0.022064235 0.1106838 0.0648236
000140 03 d6 06 3d b3 5c 21 3e 72 4c d5 3d a4 50 d8 3d
       0.03291894 0.15758018 0.104149714 0.10562256
000150 fe d3 0a 3d 5c a8 c1 3c 0b ab 91 3d 72 dc 7e 3d
       0.033893578 0.02363985 0.07112702 0.06222195
000160 0f 6c c2 bc 3c 0f 18 3d 9b 72 1e 3c d3 45 62 3d
       -0.023733167 0.037123904 0.009670879 0.05524237
000170 35 7c 34 3d c6 81 1e 3c 26 3f 24 3d 62 d0 4d 3d
       0.044063766 0.009674495 0.040099286 0.050247557
000180 f7 94 43 3d bf bf e5 bb bd d4 aa bc 9e c6 34 bd
       0.047749486 -0.0070113833 -0.020853395 -0.04413473
000190 cf ec 63 be b1 f3 bd bd f0 2b ae 3d 7f 52 db 3d
       -0.22258304 -0.09274996 0.08504474 0.10709094
0001a0 c5 be 00 3e 07 48 00 be c3 d8 30 3d 5d fd 0d 3d
       0.12572773 -0.12527476 0.04317547 0.034665454
0001b0 ca 5e 85 bd d5 1f 2e bc e1 55 ce bb 2a 1e cb 3d
       -0.0651222 -0.010627707 -0.0062968587 0.09917863
0001c0 d9 b8 5f 3c 9f 39 24 bc 6f 91 35 bc 10 e0 03 3d
       0.013654911 -0.010023504 -0.011082037 0.032196105
0001d0 b1 7c 67 3d cd c9 30 bd 18 02 b4 bc ed 59 a8 bc
       0.0565154 -0.043161202 -0.021973655 -0.020550692
0001e0 78 84 74 3d e7 51 27 bd 05 30 3b 3c 6c a3 08 bb
       0.059696645 -0.040849593 0.011425023 -0.002084936
0001f0 20 62 97 bd c6 a0 a5 bd 9f df fa bd 58 b5 d9 bd
       -0.07391763 -0.08087306 -0.122496836 -0.10630292
000200 6d 2c 89 bc 41 8f ff bc 36 e7 0b be e4 84 8c bc
       -0.016744817 -0.031196238 -0.13662419 -0.017153211
000210 57 e0 46 3d 94 fb 01 3d 76 ad f9 bd 90 6e 05 be
       0.04855379 0.031734064 -0.12191288 -0.13030457
000220 c8 16 12 be 40 6e 06 bd b9 4a f7 bc 8d 90 9c bd
       -0.14266503 -0.032819986 -0.030186998 -0.076447584
000230 6e ef 9c bc 4c 99 e4 bd e2 38 24 be fc 96 3c 3d
       -0.019157138 -0.111620516 -0.16037324 0.046042427
000240 b2 27 b8 3c 0e a4 bc 3b bb 94 07 be a3 f4 fa bd
       0.022479866 0.0057568615 -0.1324033 -0.12253692
000250 9b 07 07 3d 27 4b 86 3d 1d d1 7c bd da 57 55 bc
       0.032966238 0.06557303 -0.061722863 -0.013021434
000260 dc dd a6 3c fc a2 8e bd dd bf 56 3a 4c b4 ff 3c
       0.020369463 -0.069646806 0.0008192042 0.031213902
000270 fb b3 4b 3d 3b f5 57 bc 44 9d 8e bd d1 6f e4 bc
       0.04973219 -0.013181026 -0.0696359 -0.02788535
000280 6f 20 1d bd 72 33 35 bd a2 43 bb 3c 85 1d fc b9
       -0.03836101 -0.044238515 0.022859398 -0.0004808718
000290 b3 9d 54 3d d3 c6 5f 3d 5b b8 b5 bd b9 cb a3 bd
       0.051908206 0.054632973 -0.08873054 -0.079978414
0002a0 9c 19 a1 bc 6d 1d 46 bd 52 a7 c5 bc bd 2c 7d bd
       -0.019665532 -0.048367906 -0.024127636 -0.061810244
0002b0 ea a3 07 bc 8e a5 d5 bc 26 40 81 3d 9d 15 79 bd
       -0.008278826 -0.02607992 0.063110635 -0.060811628
0002c0 b0 35 61 bd fe 6b 63 bd 9e 31 2f 3d 93 1d a9 3c
       -0.05498284 -0.05552291 0.042771928 0.020643985
0002d0 12 d3 5c bd 7d 9d 58 bd af f1 9d bd 38 17 2c bd
       -0.05391223 -0.052884568 -0.07712113 -0.04201433
0002e0 a6 88 23 3d 86 df bc bc 5d 3b b0 bd 4e 8c 05 bd
       0.03992524 -0.023055803 -0.08605073 -0.032604508
0002f0 9e 14 a0 3b ae 95 1f bd 42 11 01 bd 13 a1 0f 3b
       0.0048852703 -0.038961105 -0.0315106 0.0021916076
000300 37 85 9f 3c 18 fe 62 bc 0f 70 ab 3c 6b 6b 3c bd
       0.019472701 -0.013854526 0.020927457 -0.04600088
000310 de 47 fe 3b d0 20 b8 3d 03 2e 03 3d 9e dd 6b 3d
       0.007760032 0.089906335 0.032026302 0.057584397
000320 d8 87 37 bc 86 08 35 3d bd 78 82 3d 40 77 ee bc
       -0.011201821 0.04419758 0.06370685 -0.029109597
000330 05 b3 64 bd 0d 25 77 bd 6a 03 74 3d 0d 55 32 3d
       -0.05583479 -0.06033807 0.05957357 0.043538142
000340 31 41 89 3b 1a 60 8d 3a 82 e0 62 bd 93 e6 ac bd
       0.0041886796 0.0010786087 -0.05538989 -0.08442416
000350 18 2b 82 bd 61 a5 af 3c 95 01 83 bc f4 ea 57 bb
       -0.06355876 0.021441163 -0.015991965 -0.003294644
000360 c2 eb ec ba 7c ff 77 bd 4f ce 30 bd e4 96 23 3c
       -0.0018075632 -0.060546383 -0.0431655 0.009984706
000370 f3 58 07 3b cd 6c 97 bc f1 d8 e8 3c 62 8e 96 3c
       0.0020652383 -0.018484497 0.028423758 0.01837844
000380 64 fa 28 3d ed 52 43 3d 7f a1 9d bd 7f 99 0a bd
       0.041254416 0.047686506 -0.076968186 -0.03383779
000390 0d ee ff bc 34 03 6c 3d b7 61 e2 3d 9e 37 a2 bd
       -0.031241441 0.057620242 0.11053794 -0.079207644
0003a0 2b ea 5b bc 08 29 89 3d 62 19 10 3d 63 ee 62 3a
       -0.013422529 0.06697279 0.035180457 0.0008656738
0003b0 8c 2d 34 3d a4 09 14 3e 7b b7 c1 3d ed 72 fd 3b
       0.04398875 0.14456803 0.09458824 0.0077346475
0003c0 8f 82 41 bd 52 cb 24 bd 00 f3 44 3d 22 88 ee 3b
       -0.04724365 -0.040232964 0.048083305 0.007279412
0003d0 80 3b b7 3c 6a 32 99 3d aa 96 53 3d 23 c3 1a 3d
       0.022367239 0.07480319 0.051657356 0.037783753
0003e0 46 d3 9f bd fe 17 e9 3b ab 20 68 bc c8 1c 38 bd
       -0.07803969 0.007113456 -0.014167945 -0.044949323
0003f0 b6 b6 96 bd 0d 34 9c 3d 37 b3 a6 3d 5b e3 7e bc
       -0.07359068 0.076271154 0.08139651 -0.015557135

conv2.bias f4 [20]
000000 c9 e1 b8 ba 26 99 fe 3c 10 d1 79 bc 29 68 a3 bd
       -0.0014105375 0.031078886 -0.015247598 -0.07978851
000010 11 d3 c7 3c 93 2c 42 bb 46 07 11 3d 00 45 3e 3d
       0.024392636 -0.002962862 0.035407327 0.046452522
000020 06 33 d3 bc 57 30 86 3c 75 db 80 3d c7 0b 07 3c
       -0.025781166 0.016380472 0.06291858 0.008242554
000030 db e0 be bc 5b 8f 7d 3d 3d b5 57 bd 73 c2 57 bd
       -0.023300579 0.061904293 -0.052663077 -0.052675676
000040 f6 93 c5 3c 04 1e 08 bd 65 59 5e 3c 04 df 0f 3d
       0.024118405 -0.03323175 0.013571118 0.035124794

fc1.weight f4 [50, 320]
000000 c8 c6 4e 3d 39 c4 2f 3d c2 bf cd 3d e7 4d 82 3d
       0.05048254 0.042911742 0.100463405 0.06362515
000010 a1 72 21 3c 3e af 8b bb 31 f1 1f bc 2c dc 16 bd
       0.00985399 -0.004262834 -0.009762094 -0.036831066
000020 a1 e7 48 bd 96 ba 02 bd cd d2 dd 3d 30 ae 80 bc
       -0.049049024 -0.031916223 0.10831223 -0.01570806
000030 17 21 c5 bc 57 13 9c bd 7c f1 67 3d 24 c1 5a bd
       -0.02406363 -0.07620876 0.05662678 -0.05340685
000040 ad 39 e2 39 61 6e 8c bd fc 50 5a 3d 30 a8 4b 3d
       0.0004314905 -0.068569906 0.05329989 0.049720943
000050 05 d7 a1 bd 35 a5 b1 bc fb 1f c7 3c 1b 4a f6 3b
       -0.0790234 -0.021685222 0.024307242 0.0075161583
000060 15 91 59 bc 04 8f 87 bd d7 51 e4 3b 96 2b 4c bc
       -0.013279219 -0.06619075 0.006967764 -0.012461564
000070 22 0c 6d bd d5 b3 83 bc 53 01 83 bd f0 0f 39 3d
       -0.0578729 -0.016076962 -0.06396737 0.045181215
000080 df 55 f1 bc f2 53 b0 bd 0a a5 9b bd b3 64 b9 3c
       -0.029459892 -0.08609761 -0.07599838 0.022631025
000090 3e 82 4f bd bb 46 aa bc 65 cd a8 3c cf 15 f7 3d
       -0.050661318 -0.02078568 0.020605752 0.120647065
0000a0 b2 79 02 bd 5e 86 2b 3d 79 5a e5 3c ac a5 72 3c
       -0.03185434 0.04187619 0.027997242 0.014810007
0000b0 0c 44 04 bd 8b 32 9b bd 49 1d 49 3d e1 df 62 bd
       -0.032291457 -0.07578 0.049100194 -0.05538929
0000c0 e6 ec 33 3d f6 86 c9 bc 10 5f 3a bd 15 9c 97 3c
       0.043927096 -0.024600487 -0.045500815 0.018507043
0000d0 c0 3a 4c 3d e4 52 92 3c 36 50 47 3b cb 29 31 3b
       0.049860716 0.017861791 0.00304128 0.0027032967
0000e0 32 e7 4d 3d 2f 8e 11 bd 76 9f 82 bc c0 90 0c ba
       0.050269313 -0.035535987 -0.015945178 -0.00053621456
0000f0 f8 48 47 3d 24 f4 fc ba fc 4b 04 ba ee 73 85 3c
       0.048653573 -0.0019298834 -0.0005046723 0.016290631
000100 be 3f f6 bc 8c f8 58 3c e9 b3 d7 bd e7 57 39 bd
       -0.030059692 0.013242852 -0.10532362 -0.045249846
000110 46 77 1b bd 9c 3b da 3d ba 1f 0b bd 1b 7a bc 3d
       -0.037955545 0.10655901 -0.033965804 0.09202977
000120 70 0e c7 bd 8b 25 04 3d c0 60 a5 3c 42 02 f7 bc
       -0.097195506 0.032262366 0.020187736 -0.030152444
000130 c0 af c6 bd 7b b0 13 bb 4b 7f 39 bc 1e b0 a2 3c
       -0.097014904 -0.002253561 -0.011321853 0.01985937
000140 a3 5b 3d bd d2 62 04 3d 78 63 69 3d d0 36 bc 3d
       -0.04622997 0.032320805 0.056979626 0.09190142
000150 59 6e 81 3c 66 3f 8f 3c b5 32 78 bc bf aa d8 bc
       0.015799688 0.017486285 -0.015148808 -0.026448606
000160 91 b5 51 3c 4c 96 5e 3d 73 27 95 bd 9e 26 1a bc
       0.012799636 0.054342553 -0.07282915 -0.009408621
000170 bf 5f 20 3d 5e e1 87 3d e1 2f 7a 3d c8 21 3e 3c
       0.03915381 0.06634782 0.061080817 0.011604734
000180 65 da ce 3c 09 a0 13 bc 23 7d b0 3d 75 e2 f1 3b
       0.025250623 -0.009010323 0.08617618 0.007381732
000190 f2 3d 4c 3c 25 06 e5 bc cc 91 2e bc a9 6a e7 bd
       0.012465941 -0.027957032 -0.010654878 -0.11299641
0001a0 f9 8a 04 ba 64 30 a7 3b 71 41 94 3d e8 c0 e1 bb
       -0.0005056109 0.005102204 0.072390445 -0.0068894513
0001b0 a4 ea 9e bd 8d 48 83 bd c2 ab 1c bc 1f 2e a9 3c
       -0.07759598 -0.06410322 -0.009562435 0.020651875
0001c0 2b 4b c8 bd d3 54 95 3c 8b d1 39 bd c1 de f9 bd
       -0.09779962 0.018228924 -0.04536585 -0.1220069
0001d0 3d c5 05 bc 2d 82 10 bc 02 f6 03 3b 05 31 a5 3d
       -0.008164701 -0.008820099 0.0020135646 0.0806599
0001e0 4e 5a 01 3d d9 af 61 bd ea 07 de ba ad 4f 49 3c
       0.031580262 -0.055099342 -0.0016939614 0.012287063
0001f0 a9 1e ea bc 41 f7 f6 3c 1e 59 20 3c 16 64 60 bc
       -0.028579073 0.030147197 0.009786872 -0.013695737
000200 41 63 e7 bc 53 2f 9a 3d e5 70 e6 3c 1f 2c e6 3c
       -0.02824557 0.07528558 0.028130004 0.02809721
000210 20 a1 cf bc 3c 41 06 3c dc 32 16 bd 73 ff 9d bc
       -0.025345385 0.008194264 -0.036669597 -0.019286847
000220 d1 bd 10 bc 65 f3 1f 3d 76 52 26 3d 07 4c d8 bc
       -0.008834318 0.03905048 0.040605985 -0.02640344
000230 46 55 82 3c 9a aa 11 3b 5b 26 53 bc 2a 2f 87 3c
       0.015909802 0.002222693 -0.012887563 0.016501982
000240 f3 de 20 bb f8 45 13 3d 2e 95 04 3d 54 b6 88 bc
       -0.002454695 0.0359554 0.03236883 -0.016688503
000250 b6 d3 54 3d e7 da e3 3c f2 55 92 bb 6e 70 00 3d
       0.051959716 0.027814342 -0.004465812 0.03135722
000260 b8 13 33 bd 39 2f 0e 3d 76 4d bf bc fd 65 05 3d
       -0.043719977 0.034713004 -0.023352366 0.032567967
000270 7e ee 8f bd 41 82 68 3d bf 94 2c bd 1c 8c 31 3b
       -0.07027911 0.056764845 -0.042134043 0.0027091568
000280 7f 3e 3a bd 52 07 3e 3c aa ef fb bd a3 49 9a b9
       -0.045469757 0.011598425 -0.12301572 -0.00029428033
000290 25 55 19 bd eb 24 dd bd 33 47 eb bd 92 12 b1 3c
       -0.037434716 -0.10798057 -0.114881895 0.0216153
0002a0 b6 86 a3 bd c5 01 26 3c ba a3 4c 3d cc 5d a9 bc
       -0.079846784 0.010132258 0.04996083 -0.020674609
0002b0 22 80 55 3c c3 39 8e 3d d8 40 a1 bc a7 9f f6 bb
       0.0130310375 0.06944611 -0.01968424 -0.0075263563
0002c0 53 07 dd bd ff f4 6b bd 9d e7 b0 bd 1d 07 78 bc
       -0.107924126 -0.057606693 -0.08637927 -0.015138415
0002d0 59 48 ed bd 05 6f 4b 3c 6b 75 a6 3c 64 f2 6c bd
       -0.11586065 0.012416606 0.020319661 -0.05784835
0002e0 b0 97 fe bc e7 dc bc 3b cc 17 3c 3b f0 11 81 bc
       -0.03107819 0.0057636383 0.0028700707 -0.015755624
0002f0 5a a1 ee bc d0 5b c3 3c ce af a7 3d 48 96 57 bd
       -0.029129673 0.02384749 0.08187829 -0.052633554
000300 42 de 56 bd 17 36 b5 bb ea ab 37 bc 51 05 df 3b
       -0.052458055 -0.0055301297 -0.011210421 0.0068060537
000310 a0 7d 2c 3d b2 38 7e 3c c9 74 16 3d 0d bc b2 bd
       0.042111993 0.015516447 0.03673247 -0.08727274
000320 57 da 99 3c c4 a3 61 bc f4 f2 00 3d 99 5c 3b bd
       0.01878087 -0.013771955 0.0314817 -0.045742605
000330 f6 99 ad bd 92 44 b0 bb 54 00 01 3b 23 1a 88 bd
       -0.08476631 -0.005379268 0.0019684033 -0.0664561
000340 98 5c e9 3c 1f 67 81 3d 47 1e c6 3d 4d b1 69 bd
       0.028486535 0.06318497 0.09673744 -0.057053853
000350 4d a4 b7 bb d7 bb eb 3c 9d 44 ca 3c 5d a6 34 3c
       -0.005604303 0.028776092 0.02469092 0.011025992
000360 0a 54 47 3d c8 5a 0f bd 94 12 dd 3b aa f0 52 bc
       0.04866413 -0.034998685 0.0067465995 -0.012874762
000370 3a e0 a1 3c e6 93 dd 3c 92 2f de 3a 11 2d 29 bd
       0.01976024 0.027048063 0.0016951433 -0.041302744
000380 ff 29 90 3c b9 3c 75 bd e4 b0 21 bc b0 06 1f bd
       0.01759815 -0.059872363 -0.009868834 -0.038824737
000390 f5 d2 8f bb 23 13 92 bd 2b 87 d2 3b 5d 6f 68 3d
       -0.0043891617 -0.07132556 0.0064248047 0.05674683
0003a0 2e 7c 81 bd fc 74 d4 bc be ae 97 3c a4 c2 29 bc
       -0.063225135 -0.025934689 0.01851594 -0.010361347
0003b0 7b d8 e1 bc 5d 7a 96 38 9c 63 55 3c 71 ca 5a bc
       -0.027569046 7.175349e-05 0.013024237 -0.01335393
0003c0 09 90 21 bd 05 ab 31 bd 0a 5d 4b bd 99 9f e5 3c
       -0.039444003 -0.043375988 -0.049649276 0.028030204
0003d0 84 97 f6 bd a7 41 84 bd 1a 96 e6 bc 74 7b 6f 3d
       -0.12040618 -0.06457835 -0.028147746 0.058467343
0003e0 3a 97 c3 bd b0 1a be bc 08 e0 f3 3c 36 91 48 bc
       -0.095503286 -0.023206085 0.029769912 -0.012241652
0003f0 70 55 7d bd a6 b6 2b 3d 9d 36 77 3d 83 11 22 3d
       -0.061849058 0.041922234 0.060354818 0.03956748

fc1.bias f4 [50]
000000 37 7b ee 3b 9f fd d2 bc 38 e3 53 bd a4 a9 da 3c
       0.007277872 -0.025755702 -0.051730365 0.02669222
000010 0a 0a 51 3d 2e f8 24 3c 69 a0 9c 3c 3a ec 00 3d
       0.051034965 0.010068936 0.019119458 0.031475283
000020 70 a0 82 3d d7 70 76 3d b0 b0 84 3d 62 a0 18 3d
       0.06378257 0.060166206 0.06479013 0.037262328
000030 c4 c0 57 3d e9 cc 2d 3b 0a 3f de bc f6 9c 97 bc
       0.05267407 0.002651984 -0.027129669 -0.018507462
000040 9c cd 51 bb ef ab 8c 3d 17 5b 19 3c 5d 86 21 3d
       -0.0032013422 0.06868731 0.009360096 0.03943478
000050 32 92 0c 3d be b1 85 3d 2a d5 6a 3c 28 86 86 3d
       0.03431911 0.06528042 0.014333049 0.06568557
000060 13 54 c9 bc 9d 34 9f 3b 74 d3 1e 3d e8 d7 39 bc
       -0.024576223 0.004858567 0.038775876 -0.01134298
000070 26 45 e8 bc 0a 02 c9 bc c6 24 25 bc 23 fe b1 bc
       -0.028353285 -0.024537105 -0.010079568 -0.021727627
000080 c1 c1 c1 3c c6 fe 25 3d a1 9d be 3c 5c 8c a1 3b
       0.02365196 0.040526174 0.023268523 0.004930062
000090 ba d2 81 3d 62 e2 a5 3d fc 2d c3 3c e6 1c e4 3c
       0.06339021 0.0809982 0.023825638 0.027845811
0000a0 00 49 23 3c 9e 16 cc 3c 76 e8 59 bb 77 33 ef 3b
       0.009966135 0.024913128 -0.003325013 0.0072998363
0000b0 39 04 c0 3d 06 b0 60 3c 8d 8b 11 3d 46 55 c0 3c
       0.093758054 0.013713842 0.035533477 0.023478162
0000c0 f3 7f 1e 3d 73 41 48 3d
       0.03869624 0.048890542

fc2.weight f4 [10, 50]
000000 f8 29 24 bd fc c9 d0 3d 93 8a 30 3e 6e d3 21 3e
       -0.040079087 0.101947755 0.17240362 0.1580331
000010 c0 cb 88 3e 79 64 0d be bf 63 3d be 1f 2b 6d bd
       0.2671795 -0.13807859 -0.18495081 -0.05790245
000020 5d b6 a9 be b9 75 4d 3e b2 46 19 be 98 ed 17 be
       -0.33146945 0.20064439 -0.14968374 -0.14836729
000030 14 16 1b be 7a 2e 96 be 64 46 73 be ab 8c 77 3e
       -0.15145141 -0.29332334 -0.2375732 0.24174754
000040 31 1c e2 bd ff 07 3f 3e 81 1e 1f bd de 8d 21 3e
       -0.11040533 0.18655394 -0.03884745 0.15776774
000050 db 1d 92 3d 6c f0 77 be 14 1b 45 be 3b b1 27 3d
       0.07134601 -0.24212807 -0.1924861 0.040940505
000060 5d 86 71 3e 96 08 be 3d da 99 27 bd 4c fa 08 be
       0.23586412 0.092789814 -0.04091821 -0.1337673
000070 37 b9 c5 3d 11 fe 3d 3e ad ee 1d be a1 f5 41 be
       0.096544676 0.1855395 -0.15423079 -0.18941356
000080 f7 78 30 3e cb ce 7e 3b d3 e8 1d 3e 37 1d 06 be
       0.17233644 0.0038880582 0.15420847 -0.13097082
000090 23 3f a7 bd 99 39 85 bd cd 72 7d be 7d ce 95 3d
       -0.08166339 -0.065051265 -0.24750824 0.07314775
0000a0 cc b8 e1 bb fa 40 10 be 9a 38 6c 3e bd c4 13 be
       -0.0068884846 -0.14087287 0.23068467 -0.14430518
0000b0 fc 39 48 be ad 7f 92 3e 1b b5 e7 bd 8e 91 63 be
       -0.1955337 0.28613034 -0.1131384 -0.22223493
0000c0 a0 ea 34 3e fa a6 09 3e 55 eb 8a 3e e9 9a 8f be
       0.17667627 0.13442603 0.2713267 -0.28047875
0000d0 88 59 4a bd 94 90 d6 bd 27 11 25 be 88 f4 0e be
       -0.04940179 -0.10476795 -0.16119824 -0.13960469
0000e0 fb c8 31 be 6b c3 43 3e 6f 65 2b bd 56 e0 42 be
       -0.17361824 0.19117515 -0.04184478 -0.1903089
0000f0 df 85 75 3e 63 ee 5c 3e a4 74 78 3e d3 84 4f 3e
       0.23976849 0.21575312 0.24263245 0.20265512
000100 1e 4c 2d be 99 9d 94 3a 18 12 06 3e 65 7a 44 be
       -0.16923568 0.0011338472 0.1309284 -0.19187315
000110 9e f1 3d bd 48 9e 01 be d9 2a 03 bd ea d3 16 3e
       -0.046373002 -0.12658036 -0.032023285 0.14729276
000120 60 5e 10 3e 66 0e a6 3e a7 aa e4 bd ba 73 27 3e
       0.14098501 0.3243286 -0.11165362 0.1635274
000130 ce 94 10 be 24 60 5f 3e 9e 48 a6 bd 8d 4b 27 be
       -0.14119264 0.21814018 -0.081193194 -0.16337414
000140 ef e2 27 3e 71 ae 08 be c9 25 c3 bd cb 86 ff bd
       0.16395162 -0.13347794 -0.09528691 -0.124768816
000150 16 69 cf bd 9a 1c 35 be 28 db 50 3e da 1d e9 3e
       -0.101274654 -0.17686692 0.20396101 0.45530587
000160 13 40 72 3e e1 20 84 bd ba bb 51 be e1 e3 f5 3d
       0.23657255 -0.06451584 -0.20481768 0.12006355
000170 6c f8 7d bd 54 32 89 bd d7 1b 66 3e c7 f4 13 be
       -0.06200449 -0.066990525 0.22471558 -0.14448844
000180 98 26 85 bd 01 0f 14 be 23 40 82 bd 9b 11 9a bd
       -0.06501502 -0.14458849 -0.06359889 -0.07522889
000190 fb d9 4f 3b d8 d2 c5 bd 3b 13 4f 3d 9b 85 8a 3c
       0.003171562 -0.09659356 0.05055545 0.016909411
0001a0 c1 31 2a be 54 fb 60 3e 06 f4 0e 3d cc 70 74 3e
       -0.16620542 0.21970874 0.034900688 0.23871154
0001b0 42 d7 98 be 3d 5f 87 bb 4a 7b 0e bd 32 67 09 be
       -0.2985173 -0.0041312263 -0.034785546 -0.13418272
0001c0 64 e6 58 3e fc 77 5f be 4f 4d ac bd 3a 36 43 3e
       0.21181637 -0.21823114 -0.08413183 0.19063655
0001d0 40 1d 32 3e 6f 1a 47 3e 12 b3 06 be cc 4c 7a 3d
       0.1739397 0.19443677 -0.13154247 0.061108395
0001e0 4a 42 02 3d fb 37 66 be 97 14 8a be cc d0 28 be
       0.0318015 -0.22482292 -0.26968834 -0.164859
0001f0 71 77 6b bc 6a 48 59 3e a4 13 1c 3e 20 fd 59 3e
       -0.014371739 0.2121903 0.15241867 0.21287966
000200 79 95 27 3e 17 77 2b 3e 95 34 99 bd 2e 15 04 bd
       0.16365613 0.16744648 -0.07480732 -0.03224676
000210 a1 99 f9 bd 8a 68 5d 3d 21 38 6f bd d7 c3 f9 bd
       -0.121875055 0.054054774 -0.058403138 -0.121955566
000220 a3 19 35 3e cc f1 a2 3d 31 4e 11 be 81 ba 22 be
       0.17685561 0.07956275 -0.14189984 -0.15891458
000230 15 04 59 be bf 84 30 3e bf 11 55 3e 18 b4 6c 3d
       -0.21192963 0.17238139 0.20807551 0.05778894
000240 23 79 60 3e e8 e9 2f be 87 8b 53 3e 13 1c 1c bd
       0.2192121 -0.17179072 0.20658694 -0.03811271
000250 81 26 13 be d9 4a 09 3e 34 3c 72 bd e2 ff b8 bd
       -0.14370157 0.13407458 -0.059139445 -0.09033181
000260 67 46 4e 3e bd c4 3a 3e 0a c8 1f be 6f 73 d9 3d
       0.20144044 0.18239112 -0.15603653 0.1061772
000270 5c 1d 52 bd a7 a7 66 3e 11 5d f8 3d ab b5 c0 bd
       -0.05129753 0.22524892 0.12127126 -0.094096504
000280 10 5f 5f be 13 67 4f be b6 5f 7b bd e9 91 5f 3e
       -0.21813607 -0.20254163 -0.061370574 0.21833004
000290 6a 9c 82 3e 8d 1b 0c be 05 5f 34 3e c1 71 cc bd
       0.2550996 -0.13682385 0.17614372 -0.09982634
0002a0 b6 1e 03 be 6a 3d 24 3e d2 6d 25 3d 0d 41 08 be
       -0.12804684 0.16039053 0.040387936 -0.13306065
0002b0 74 92 42 be 30 59 70 be 0b 24 e2 bd fd 22 34 3e
       -0.1900118 -0.23471522 -0.11042031 0.17591472
0002c0 6c 03 16 be e9 d8 fd bd 11 78 1a 3e cf bc ff bd
       -0.14649743 -0.12394888 0.15084864 -0.12487184
0002d0 c0 44 02 be b0 48 59 3e 19 fc c4 bd 03 ba e9 bd
       -0.12721539 0.21219134 -0.09618396 -0.11412432
0002e0 b2 54 1c be 75 0f e0 bd 75 7c 67 3e 97 7d ba bd
       -0.15266684 -0.10940448 0.2260607 -0.091059856
0002f0 0c 9a 74 3e 61 c3 c8 bd c2 43 ca bd 50 df 98 3d
       0.23886889 -0.098028906 -0.09876205 0.074644685
000300 82 d6 b0 bd 09 54 61 3e 73 5c d3 bd 66 46 d2 bd
       -0.08634664 0.22004713 -0.10320368 -0.10267334
000310 18 2c 04 3e 9a 61 ea bc 4e aa 57 be 7a ef 1a 3e
       0.12907445 -0.028610993 -0.2106106 0.15130416
000320 6d ab 07 3d 20 db 86 be 3a 75 fd 3c 5e 9d 69 be
       0.03312247 -0.26339054 0.030939687 -0.22813937
000330 2d 09 b6 bd cb 78 45 3e d8 63 99 3e 01 27 c4 bd
       -0.08888469 0.1928436 0.29958987 -0.09577752
000340 6b 12 16 3e a0 88 2a be e7 47 46 3e f6 97 7e bc
       0.14655463 -0.16653681 0.19363366 -0.01553916
000350 6d 2a 29 3e 34 5d d4 bb 93 1e 85 3e e3 ce 8d 3c
       0.1652009 -0.0064808372 0.2599989 0.017310565
000360 ce e3 54 be 6d 43 45 3e 8d f6 79 3e a8 fb 5b be
       -0.20790026 0.19264002 0.24410458 -0.21482718
000370 b8 45 da bb ed 62 13 3e 3f 5f f5 3d 80 fb 0b be
       -0.006661143 0.14393206 0.119810574 -0.13670158
000380 02 15 1c bd ac c6 83 be 32 e9 1f be c3 ac 63 3e
       -0.038105972 -0.25737512 -0.156163 0.22233872
000390 26 f3 02 be a7 21 4e 3e 90 07 7a 3e b0 21 ff bd
       -0.12788066 0.20130025 0.24416947 -0.12457597
0003a0 64 f9 fd 3d 4c 4d a8 3e 24 b5 4b be 9f d1 2c 3e
       0.12401083 0.32871473 -0.19893318 0.16876839
0003b0 aa 85 06 be 6b dd 2e bd 10 b9 8e 3d f3 26 00 be
       -0.13136926 -0.04269163 0.069688916 -0.12514858
0003c0 cf 9c f1 bd 77 36 b9 3d d1 46 9a bd 8e 75 df 3c
       -0.11797487 0.090435915 -0.075330384 0.027277734
0003d0 b4 4a be bd 4d d6 af bd f0 6b 17 be 6b f7 66 3e
       -0.09291592 -0.085857965 -0.14787269 0.2255532
0003e0 5b 2a 70 3c 04 ec 8a be 9d 5a ef bd 95 29 27 3e
       0.014658536 -0.2713319 -0.11687205 0.16324456
0003f0 b6 9e 63 bd e8 4c 2c 3e 7e c6 0d be 18 01 50 be
       -0.05557128 0.16826212 -0.1384525 -0.20312917

fc2.bias f4 [10]
000000 66 fa a5 3d 1c 5a e6 3d 3f 1d ed bd de 9e d8 3d
       0.081044 0.11247656 -0.11577844 0.105771765
000010 9f 92 62 3d 11 f9 5a 3d 8a b2 15 be 9e 3c 08 3e
       0.05531561 0.053460184 -0.14618888 0.13304374
000020 d0 2b 5f 3d 50 68 de bc
       0.054485142 -0.02714935
